backend/HBModel.pth (torch, 4224 bytes, 7 tensors)

fc1.weight f4 [10, 9]
000000 54 de a3 be e0 cb 9d bd 3a 6f 3a 3e 58 61 26 be
       -0.3200556 -0.07704902 0.18206492 -0.16248071
000010 50 a2 94 bd 60 6b d6 bd ec a2 d8 3d 69 a5 89 3e
       -0.07257521 -0.10469699 0.1057795 0.2688401
000020 26 c1 2e be 05 20 fa be dd 03 6a 3e 7e 18 1a bf
       -0.17065868 -0.48852554 0.22853036 -0.6019362
000030 60 96 e6 3d de a8 1e be 00 90 94 3d 76 60 55 3e
       0.112591505 -0.15494105 0.07254028 0.20837578
000040 38 69 2a be e6 13 31 3e 41 86 38 3e 4d 43 b7 3c
       -0.166417 0.17292747 0.18019964 0.022370959
000050 fc df 52 3e 7b e6 1c be 93 e6 c6 bd f3 69 b7 3e
       0.20593256 -0.15322296 -0.09711947 0.3582302
000060 d3 11 17 be 3d 22 b1 be 9d 7e b0 be 9e 19 fe bd
       -0.14752893 -0.34596434 -0.34471598 -0.1240723
000070 30 6a 36 3e 75 8c ca be b4 bc ce bd 0a 3e 92 be
       0.17813945 -0.39560285 -0.10094586 -0.28562957
000080 51 92 fe 3d 40 09 8b 3d 71 88 ee bd 80 fa c3 3d
       0.124302514 0.06788874 -0.11647118 0.095692635
000090 8f fb 8a be 88 52 29 3e 72 28 35 3d 3a 4e 4c 3e
       -0.2714505 0.1653539 0.044228025 0.19951716
0000a0 8f 24 4f bf 5b 74 6e bf 32 b3 1f bf 41 a3 a2 3d
       -0.8091516 -0.93146294 -0.62382805 0.079412945
0000b0 73 f8 74 bd 86 65 38 be f9 7e a0 3e 86 72 0a be
       -0.059807252 -0.18007478 0.31346872 -0.1352025
0000c0 a6 a2 83 be b7 2f 93 be 10 55 96 be 38 da 1e 3e
       -0.25710028 -0.2874734 -0.29361773 0.15512931
0000d0 00 ab 93 3d 78 a3 54 be 1b c2 a9 be a0 f6 37 bc
       0.0721035 -0.20765483 -0.33155903 -0.011228234
0000e0 40 6f af bd a0 a4 1e be 82 71 94 be 9e cf 43 be
       -0.08566141 -0.15492487 -0.2899285 -0.19122168
0000f0 e8 5b 6a be 00 e0 d1 39 94 0d 95 3d 9f 91 e5 3c
       -0.22886622 0.0004003048 0.072779804 0.02802354
000100 8a bd dd bc 43 95 9b be 22 2c d9 3b c7 d6 fa 3d
       -0.027067918 -0.30387315 0.0066275755 0.12247997
000110 1f b2 e7 3d 2e a2 04 3e c8 72 a4 3e 52 02 71 3e
       0.11313271 0.12952492 0.3211882 0.23536041
000120 a7 04 ef 3d f0 e2 0d bf 8f 60 cb 3d c3 87 4a 3e
       0.11670809 -0.55424404 0.099305265 0.19778351
000130 ca eb 5d be 4b b2 93 be 56 d0 e7 be df 67 51 3d
       -0.21671978 -0.28846964 -0.45276135 0.05112445
000140 5e db 3f be 76 0f b4 be de 60 26 bd 3c 15 4d 3e
       -0.18736026 -0.35168046 -0.040619723 0.20027632
000150 60 dc 86 bd 91 f1 8a bc 96 ed b4 3e b4 ca 87 3e
       -0.06585002 -0.016960891 0.35337514 0.26521838
000160 ab 18 1d be eb 5a 40 3d
       -0.15341441 0.046961706

fc1.bias f4 [10]
000000 f8 dd 4a bd a8 30 a4 be d6 9d 0e bc d1 1b c1 bb
       -0.049528092 -0.32068372 -0.008704623 -0.0058932086
000010 a1 44 a7 be 80 a2 76 bb d0 0c 9b be 07 e5 2c 3e
       -0.32669547 -0.0037633479 -0.30283213 0.16884242
000020 13 80 3d 3e 99 14 9c 3d
       0.18505888 0.07621116

fc4.weight f4 [1, 10]
000000 e3 1a 2b 3e 4f 51 ac 3d 38 83 ad 3e 6a 35 1d be
       0.16709475 0.08413946 0.33889174 -0.15352407
000010 49 db 38 be 61 2f 86 be 88 06 55 3e d2 1c bd be
       -0.180524 -0.26208022 0.20803273 -0.3693605
000020 a0 e3 60 3e 3b 1d d2 3c
       0.21961832 0.025648704

fc2.weight f4 [10, 10]
000000 98 45 a9 3d fc 2e 8c 3e bc 54 87 be c3 97 eb bd
       0.08265227 0.27379596 -0.26431835 -0.115035556
000010 e6 93 12 bd ef 8f 9b 3e fc 6b 23 be 0f c7 04 be
       -0.03578558 0.3038325 -0.15959162 -0.1296656
000020 80 39 4b 3d 1f fe 18 3e d8 2c 29 be 39 9a 6f be
       0.049615383 0.1494069 -0.16521013 -0.23398675
000030 03 66 9b bd 8b 98 81 3e 63 4e 36 be 5b 64 a0 be
       -0.075878166 0.25311694 -0.1780334 -0.31326565
000040 a8 50 c5 3d 18 b7 0b bc 78 25 b5 be a4 61 08 be
       0.096345246 -0.00852754 -0.3538015 -0.13318497
000050 cb 75 8a be e7 45 86 be 54 9f 1d be 97 3e 09 be
       -0.27042994 -0.26225206 -0.1539281 -0.13402782
000060 55 6e ed 3e 26 63 70 3e 42 c9 3f 3e 75 ae 34 bd
       0.4637324 0.23475322 0.18729118 -0.044111688
000070 42 0d 0e 3f f6 b6 5c 39 54 97 2b be 29 eb 35 3e
       0.5548898 0.00021048993 -0.16756946 0.17765488
000080 61 be 05 3d 9d 16 e4 bd ab 18 d0 bc b4 fe 38 be
       0.032652263 -0.11137126 -0.025402388 -0.18065912
000090 81 12 89 3e ca b8 c3 3d 78 db 70 be 37 28 5a be
       0.2677193 0.0955673 -0.2352122 -0.21304403
0000a0 14 e6 ef 3d 47 7b c9 3d b9 09 05 be 00 26 c2 ba
       0.11713806 0.098379664 -0.1299199 -0.001481235
0000b0 cd 89 99 3e d1 36 07 be 34 e6 8b be ec 5b b9 be
       0.29987946 -0.13204505 -0.2732407 -0.36202943
0000c0 6d 66 94 3d fd 08 85 be 02 ee 35 3e 9e ce 90 be
       0.07246099 -0.2598342 0.17766574 -0.28282636
0000d0 49 4c b8 3c f7 b6 c2 3d c9 a8 4c be dc 09 c5 3d
       0.022497313 0.09507554 -0.19986261 0.09621021
0000e0 d7 54 97 3e f6 5b 14 bd 4a c0 89 3d 4e 0a 2a be
       0.29556915 -0.036220513 0.06726129 -0.16605493
0000f0 58 14 0a bd 07 4c 8a 3d be 2b d4 3d 9d 64 04 3e
       -0.033710808 0.06752782 0.10359906 0.12929006
000100 ce a2 c1 bd 0e 06 1f be c0 be 2f bd 68 4c 24 3e
       -0.09454881 -0.15529653 -0.042906523 0.16044772
000110 ce 5f df be 0c 56 67 be a4 b6 21 3e cf 57 53 be
       -0.4362778 -0.22591418 0.15792328 -0.20638965
000120 8e 93 bb be 01 ff 9f be e1 e0 b9 be a0 7e 12 be
       -0.36636013 -0.3124924 -0.3630438 -0.14306116
000130 34 d1 f1 bd 98 c3 92 bd 8d e6 16 bc 0a 86 11 bd
       -0.118074805 -0.07166213 -0.009210241 -0.03552822
000140 a9 26 43 be 5b 59 db 3e c7 e9 97 bd 34 bc 90 bd
       -0.19057716 0.4284161 -0.07417636 -0.07067147
000150 ed 40 d9 be 43 a5 9f be bf 6e 8b 3e 28 83 17 3d
       -0.42432347 -0.31180772 0.2723293 0.036990315
000160 4d e7 b7 be 2f de db 3d 76 bf 8f bd 50 d9 2b 3e
       -0.35918656 0.107357375 -0.0701894 0.16782117
000170 7f 17 2b 3e db 13 a1 3d e6 f9 8f be 20 68 fb bc
       0.16708182 0.07865115 -0.28120345 -0.0306893
000180 80 fe d2 3b eb e1 3e bd 3f a2 30 bd d8 b8 4a be
       0.00643903 -0.04660217 -0.04312348 -0.19797075

fc2.bias f4 [10]
000000 9d 79 5e be f0 1f bf bd c9 5b 23 be a1 1b 85 bd
       -0.2172608 -0.093322635 -0.15952982 -0.064994104
000010 af b4 3f bd de 03 5b be 2f 8c 27 3f f7 98 1b be
       -0.046803173 -0.21388194 0.6544828 -0.1519507
000020 ca ac 44 3f ca ef 04 be
       0.76826155 -0.12982097

fc3.weight f4 [10, 10]
000000 a0 30 87 3e 2f 0a 51 3e 80 2e dd bd f0 26 1c be
       0.26404285 0.20414041 -0.10799885 -0.15249228
000010 2e f1 ce 3c 0a ea 88 3e d9 2e 52 be d9 fa cc 3d
       0.025261488 0.26741058 -0.20525683 0.10008783
000020 e5 05 c3 3e c8 04 cb 3e 37 33 df bd f6 40 61 be
       0.38090435 0.39652085 -0.1089844 -0.21997437
000030 a0 ec b1 be a3 c7 81 bd 0f 56 cb bd b8 7d 1a be
       -0.34750843 -0.06336906 -0.09928524 -0.1508702
000040 cd 41 8c 3e 3c 14 ab 3d 67 f5 1a be 94 c3 6b 3e
       0.27393952 0.08353469 -0.15132676 0.23023826
000050 47 2e 3d bc b2 28 c5 3e 48 44 dc be 95 7d 71 3e
       -0.011546678 0.3850761 -0.43020844 0.23583062
000060 00 92 6a be 8f 6b 51 be 2e 5e d6 3e 71 df ad 3e
       -0.22907257 -0.20451187 0.41868728 0.33959535
000070 c8 fe d4 3e d6 6e 40 3e 7d 52 33 3e 65 d3 13 bc
       0.41600633 0.1879228 0.17511936 -0.009022568
000080 84 ec 88 3e 14 7a 0d bf 95 24 8e 3e 5b c8 87 be
       0.26742947 -0.552644 0.27762285 -0.26520047
000090 ea d4 27 3e 14 f7 0e 3d 0e 1e dd 3d 2a 46 46 be
       0.16389814 0.0349036 0.10796748 -0.19362703
0000a0 4f dc 3b be 86 d4 42 bc 4c de b7 3e a1 2f 07 bf
       -0.1834576 -0.01189149 0.35911787 -0.5280705
0000b0 d4 93 1e 3e b6 85 89 bd d5 73 c1 be 55 07 cb 3c
       0.1548608 -0.067149565 -0.37783685 0.02478377
0000c0 3d 9a 69 be 77 f8 b6 be b6 e5 e2 3a cf 23 13 3e
       -0.22812743 -0.3573644 0.0017310891 0.14369129
0000d0 df 87 d5 3e c2 e8 f8 3c 0f e1 b5 3e 1f 76 0b be
       0.41705224 0.030384425 0.3552327 -0.13619278
0000e0 7f f6 74 bd ed 04 18 3e 2b bf c6 3d 76 fb 11 3d
       -0.05980539 0.14845629 0.09704431 0.035640202
0000f0 8f f8 a9 bd bc 6b 9f 3d 10 61 73 3d a0 4d 1e 3e
       -0.08299362 0.077842206 0.059418738 0.15459299
000100 a6 e6 04 3e 7d 6c 0d be 01 eb d0 3d 24 26 c5 bd
       0.1297861 -0.13810916 0.102010734 -0.09626415
000110 5f 57 06 3d 55 60 04 be 66 c3 99 bc 27 e0 2f 3e
       0.032798167 -0.12927373 -0.018769931 0.17175351
000120 26 b8 9d 3e be 19 18 3e 4b bc b3 3e b8 ac e8 3d
       0.30804557 0.1485357 0.35104594 0.113610685
000130 37 53 1b 3c 25 ef 55 3e d4 a9 ff bd 98 db 15 3d
       0.009480289 0.20892008 -0.12483564 0.036586374
000140 55 17 82 3e 0f 11 aa bd 3f 07 41 bd 1e 51 21 3c
       0.25408426 -0.08304035 -0.04712605 0.009846
000150 87 8c 14 bd 5a 5b 14 3e ca eb 93 3d 72 43 46 be
       -0.03626683 0.14487973 0.072227076 -0.19361666
000160 83 82 0d 3e 78 87 d1 3d 25 f8 4d 3e 58 9a 94 3e
       0.13819318 0.10230917 0.20114191 0.29024005
000170 2d e2 ae 3a 56 16 5c 3e d4 1b 5b be b0 f1 99 3e
       0.0013342552 0.21492895 -0.21397334 0.30067205
000180 67 77 36 3d 0e 0e f4 bc 84 3c 30 3e e5 8b 62 3e
       0.044547465 -0.029791858 0.17210585 0.22123678

fc3.bias f4 [10]
000000 ab 18 42 3f 56 e7 f0 3e 78 34 84 3e c4 25 19 bf
       0.7581889 0.47051495 0.2582128 -0.5982325
000010 16 3c 27 bf 85 a8 d0 be 4e 45 01 3f 6e ec 43 bf
       -0.6532606 -0.4075357 0.50496376 -0.7653264
000020 b8 0a bf 3e 41 61 ea 3e
       0.37312865 0.45777324
